android/app/src/main/assets/Trikonasana.tflite (tflite, 4184 bytes, 5 tensors)

dense_4/MatMul_bias f4 [16]
0	0x3d7a9ef2	0.06118674
1	0x3d124265	0.03570785
2	0xbcc11d74	-0.023573615
3	0x00000000	0.0
4	0xbd52211b	-0.051301103
5	0xbb4f3dc1	-0.0031622502
6	0x3bef7aa3	0.0073083206
7	0x3c36867c	0.011140462
8	0x00000000	0.0
9	0x00000000	0.0
10	0x3cd843c1	0.026399495
11	0x3c4a03ab	0.012329976
12	0xbd8665ff	-0.06562423
13	0xbd7a6dbb	-0.061139803
14	0xbcdb3636	-0.026759248
15	0x3d5b67a4	0.053565636

dense_4/kernel/transpose f4 [16, 34]
0	0x3e6d1e90	0.2315619
1	0xbd2c416e	-0.042054586
2	0x3d260593	0.04053266
3	0x3ed3d1bb	0.4137095
4	0x3d7f5a5c	0.062342033
5	0x3dca8e1a	0.09890385
6	0xbd94af5e	-0.07260011
7	0xbe3d488e	-0.18484709
8	0x3eb5e3f1	0.35525468
9	0x3d501cce	0.05080872
10	0xbe8aacf7	-0.27085087
11	0x3e526cfe	0.2054939
12	0xbdaec0ab	-0.08532842
13	0x3e3d2840	0.18472385
14	0x3db5f8b2	0.088853255
15	0x3e746708	0.23867428
16	0x3dabaf4d	0.08383045
17	0x3d9bbb5b	0.076040946
18	0x3e9b437c	0.30324924
19	0x3e0495cd	0.1294777
20	0xbc60b029	-0.013713875
21	0x3eaea575	0.3411061
22	0xbd736b65	-0.05942859
23	0x3d9f1b82	0.077689186
24	0x3ea0199f	0.31269547
25	0x3e27751e	0.1635327
26	0x3e9c3aec	0.30513704
27	0x3e2cf94b	0.16891973
28	0xbdb4ea04	-0.088336974
29	0xbe15dcb7	-0.14634977
30	0x3d20a30d	0.039217997
31	0xbd57b804	-0.052665725
32	0x3dc371e3	0.095432065
33	0xbe0c82ad	-0.13721724
34	0x3da02fdc	0.078216285
35	0x3e5827ba	0.21108904
36	0x3e986c79	0.29770258
37	0xbebe71b3	-0.3719612
38	0x3c9ff811	0.019527467
39	0xbcfad84a	-0.030620713
40	0x3d90049e	0.07032131
41	0x3d28497c	0.041085705
42	0xbe43f840	-0.19137669
43	0xbdf5eb7f	-0.12007808
44	0xbe9c1b1f	-0.30489442
45	0x3e6f0530	0.23341823
46	0x3cbe20e7	0.023209048
47	0x3da2840d	0.07935343
48	0xbd0d740b	-0.034534495
49	0xbe40275c	-0.18765014
50	0x3c64e75b	0.013971175
51	0xbe473745	-0.19454677
52	0xbe0c6018	-0.13708532
53	0xbe2b41eb	-0.16724364
54	0x3e2e0419	0.1699375
55	0x3edbede6	0.4295494
56	0x3d63c04f	0.05560332
57	0x3e57ce24	0.2107473
58	0xbd99dada	-0.07512446
59	0xbeccf761	-0.40032485
60	0x3eaeb295	0.34120622
61	0x3e6fb31f	0.23408173
62	0xbdf0ca58	-0.11757344
63	0xbddae6dc	-0.10688564
64	0xbe71b269	-0.23603214
65	0xbdd3bddd	-0.10338948
66	0xbe656d78	-0.2240504
67	0x3e07cba5	0.13261278
68	0xbd9173fa	-0.07102199
69	0xbea9c3c4	-0.3315717
70	0x3c674aa6	0.014116919
71	0xbeb54217	-0.35401985
72	0x3e097632	0.13423994
73	0x3e89a7e7	0.26885912
74	0x3eb20de1	0.34776214
75	0x3ea48d31	0.3213897
76	0xbdf4930d	-0.1194211
77	0x3e6e8d6d	0.23296137
78	0x3dffc661	0.1248901
79	0x3de38cd1	0.11110843
80	0x3c12441c	0.008927371
81	0xbb277330	-0.0025550835
82	0x3e0b4716	0.13601336
83	0x3d8548aa	0.06508
84	0xbd339be6	-0.04384985
85	0xbe7e160c	-0.24813098
86	0x3e765f2c	0.24059743
87	0x3e68cc57	0.227342
88	0x3e7ee79f	0.24893044
89	0x3d86d2a2	0.06583144
90	0xbd3ef7bd	-0.04662298
91	0x3eb21548	0.3478186
92	0x3e69b31e	0.22822234
93	0x3d0a3a09	0.033746753
94	0xbc74b064	-0.014934633
95	0x3e19883d	0.14993377
96	0x3def4b45	0.116842784
97	0xbe084737	-0.13308416
98	0xbe8397de	-0.25701803
99	0x3cfb417f	0.03067088
100	0x3dabb655	0.083843865
101	0x3ea98a6b	0.33113417
102	0xbdbfcb88	-0.093649924
103	0x3d16f4a8	0.036854416
104	0x3c4e7000	0.012599945
105	0xbdd3537a	-0.10318656
106	0xbe294fe1	-0.16534378
107	0x3e3418c0	0.17587566
108	0x3d9a3c7c	0.07531068
109	0xbea5ba77	-0.32368824
110	0xbddccfc6	-0.10781817
111	0xbd9a0f3c	-0.07522437
112	0x3e9c9586	0.30582827
113	0x3dd72060	0.10504222
114	0xbe4f1994	-0.20224601
115	0x3e1655d2	0.14681175
116	0xbea090b2	-0.31360394
117	0x3e5de5ec	0.2166974
118	0xbe328bcd	-0.17436142
119	0x3e680878	0.2265948
120	0xbd694920	-0.056954503
121	0xbd9401d4	-0.07226911
122	0x3dc47754	0.095930725
123	0x3e2a2ce4	0.16618687
124	0xbc6b5860	-0.014364332
125	0xbc8143e0	-0.015779436
126	0xbe75f6fa	-0.24019995
127	0xbea31b7d	-0.3185691
128	0x3e28a4fc	0.16469187
129	0xbe4c17a8	-0.19930899
130	0xbd996480	-0.07489872
131	0xbe49870a	-0.1968042
132	0xbe248fc9	-0.16070475
133	0x3e258d80	0.16167259
134	0x3e09dd64	0.1346336
135	0x3e4230c8	0.18963921
136	0xbe1f55d9	-0.15560092
137	0xbee77659	-0.4520748
138	0x3e3aae72	0.18230608
139	0xbd06727f	-0.032824036
140	0xbdc1073c	-0.09425208
141	0xbec9d23c	-0.3941821
142	0x3e2ed250	0.17072415
143	0xbc4bb662	-0.01243362
144	0xbe319d6a	-0.17345205
145	0x3e64adc0	0.22331905
146	0xbdde9da2	-0.1086991
147	0x3e8a70b6	0.27039117
148	0xbe90de82	-0.2829476
149	0xbed5b35f	-0.41738412
150	0xbccebe36	-0.025237184
151	0x3d0680d8	0.03283772
152	0x3e0a6ee7	0.13518868
153	0xbd420ba7	-0.047374394
154	0x3e2a3f91	0.16625811
155	0x3ea11f17	0.31469032
156	0xbdc5d31b	-0.09659406
157	0x3e3bb32c	0.18330067
158	0xbe10bc9b	-0.14134447
159	0x3eced4a9	0.40396622
160	0x3e2be64a	0.16787067
161	0x3d979912	0.07402243
162	0xbd73d451	-0.059528653
163	0xbe287feb	-0.16455047
164	0x3e091137	0.13385473
165	0x3d9a0958	0.075213134
166	0x3ea77a18	0.32710338
167	0x3e1059fb	0.14096825
168	0x3e242665	0.16030271
169	0x3c9d0576	0.019167643
170	0xbea1788e	-0.31537288
171	0x3e8af174	0.2713734
172	0xbd645ceb	-0.055752676
173	0x3e876b82	0.2644921
174	0x3e75fb67	0.24021684
175	0x3e97fb48	0.296839
176	0x3e92e398	0.28689265
177	0xbe1aee07	-0.15129863
178	0xbe48a9de	-0.19596049
179	0x3e246507	0.16054164
180	0xbea27d93	-0.3173643
181	0x3d35e0dd	0.0444039
182	0x3c9f1939	0.019421207
183	0xbd14456b	-0.036199015
184	0x3d8711ae	0.06595169
185	0xbe3c7957	-0.18405662
186	0xbe45c889	-0.1931478
187	0x3e8cd918	0.2750938
188	0x3e91406e	0.28369468
189	0x3d53302d	0.051559616
190	0xbd87332a	-0.06601556
191	0x3e2578d7	0.16159378
192	0x3d9f8572	0.077891245
193	0x3c8d8c79	0.017278897
194	0xbdd0b83c	-0.1019139
195	0xbea2e83f	-0.31817815
196	0x3e9c9798	0.30584407
197	0x3dd8fbaa	0.10594876
198	0x3a790324	0.0009499064
199	0xbea85891	-0.3288007
200	0xbe92e192	-0.28687721
201	0xbe9706eb	-0.29497465
202	0xbd822646	-0.06354956
203	0xbe1a93cf	-0.15095447
204	0x3e855a70	0.2604556
205	0xbd169905	-0.036767025
206	0xbc3f4275	-0.011673559
207	0x3e7af808	0.24508679
208	0xbc7343f3	-0.014847743
209	0xbd185947	-0.037194517
210	0x3e19b10d	0.15008946
211	0x3e873c54	0.26413214
212	0x3e10f3c5	0.1415549
213	0x3d556025	0.052093644
214	0xbe995e95	-0.29954973
215	0xbe9b4de9	-0.30332878
216	0xbe9301eb	-0.287124
217	0xbdd6a1f1	-0.104801066
218	0xbdae3d3c	-0.08507773
219	0xbe2ddbcc	-0.16978377
220	0xbe66697c	-0.22501177
221	0x3e8cc4e5	0.2749397
222	0x3e97eba6	0.29671973
223	0xbe534d4c	-0.20634955
224	0x3e263538	0.16231239
225	0x3e707a9e	0.23484275
226	0xbe27b01b	-0.16375773
227	0x3de3f7f5	0.111312784
228	0xbe116d57	-0.14201866
229	0x3b6657dd	0.0035147585
230	0xbd7aa5ab	-0.06119315
231	0xbe9864e2	-0.29764467
232	0xbdcade7a	-0.09905715
233	0x3e82f511	0.25577596
234	0xbe286023	-0.16442923
235	0x3eac070d	0.3359913
236	0x3e944fec	0.28967226
237	0x3ea6c549	0.32572392
238	0x3e9b2d53	0.30308017
239	0xbdae7ba5	-0.08519677
240	0xbe43a714	-0.19106704
241	0x3d0a78db	0.033806663
242	0x3e86beab	0.26317343
243	0x3e84a385	0.25906006
244	0xbe85f17a	-0.26160794
245	0xbd35c670	-0.044378698
246	0xbd2c2943	-0.042031538
247	0x3d4fece9	0.050763045
248	0xbea438da	-0.32074624
249	0xbe4c0eea	-0.19927564
250	0xbe8ddf35	-0.27709356
251	0x3eac04c5	0.3359739
252	0x3c4a8da3	0.01236287
253	0x3eb90f55	0.3614451
254	0x3dddc75a	0.10829039
255	0x3e88c9e1	0.2671652

dense_5/MatMul_bias f4 [8]
0	0x00000000	0.0
1	0x00000000	0.0
2	0x3d8f3a5a	0.069935516
3	0xbcc7323c	-0.024315946
4	0xbc3aa2d7	-0.011391363
5	0xbd1514f5	-0.03639694
6	0x3c21d990	0.009878531
7	0xb99e2b16	-0.0003016821

dense_5/kernel/transpose f4 [8, 16]
0	0x3cac85c0	0.02105987
1	0x3e960c0c	0.29306066
2	0xbe937164	-0.28797448
3	0x3e52d6c8	0.20589745
4	0xbe2d1ca8	-0.16905463
5	0x3e91fea0	0.28514576
6	0xbe0ddd00	-0.13853836
7	0x3da9c3b0	0.082892776
8	0xbec08d80	-0.37607956
9	0xbed80d94	-0.4219786
10	0xbef618cc	-0.48065794
11	0x3eabac1c	0.33529747
12	0xbe6f3b90	-0.23362565
13	0xbec185c0	-0.37797356
14	0x3e4931a0	0.19647837
15	0x3dca1fe0	0.09869361
16	0xbeb15d88	-0.3464167
17	0x3eac8abc	0.33699596
18	0xbe920eb0	-0.2852683
19	0xbe6cca70	-0.23124099
20	0xbda39cc0	-0.07988882
21	0xbee6df64	-0.4509231
22	0x3d03fa80	0.032221317
23	0xbd888a10	-0.06666958
24	0x3ed677d8	0.4188831
25	0x3e8bb544	0.27286732
26	0xbd301ec0	-0.042998075
27	0x3d0a3e40	0.033750772
28	0xbe67c460	-0.22633505
29	0x3e37c000	0.17944336
30	0x3ebe5434	0.37173617
31	0xbdbc8210	-0.09204495
32	0xbea0e185	-0.31422058
33	0x3ee5cf80	0.44884872
34	0x3e6a3610	0.22872186
35	0x3ef0dd50	0.47043848
36	0xbe847ca0	-0.2587633
37	0xbd5c64c0	-0.05380702
38	0x3d9bdcfc	0.07610509
39	0xbe76e2ea	-0.24109998
40	0xbea537b0	-0.3226905
41	0xbe9718ac	-0.2951101
42	0x3f0d416e	0.5517796
43	0x3ed73c5e	0.42038244
44	0xbe4c855c	-0.19972748
45	0x3e8702be	0.2636928
46	0x3e68c08d	0.22729702
47	0xbecde463	-0.40213308
48	0x3d893ea0	0.06701398
49	0xbd2c0720	-0.041998982
50	0xbe7fc664	-0.24978024
51	0xbe539718	-0.20663106
52	0xbe10e91e	-0.14151427
53	0xbaba2c00	-0.0014203787
54	0xbdbc20e0	-0.09185958
55	0x3efa2d98	0.4886291
56	0x3e27acf0	0.16374564
57	0x3ea2be98	0.31786036
58	0xbebc3ef6	-0.36766785
59	0x3ecf3001	0.40466312
60	0xbefc897c	-0.49323642
61	0x3e154b99	0.1457962
62	0xbde4f2d9	-0.11179132
63	0x3ca8e252	0.02061573
64	0xbd4efe03	-0.050535213
65	0xbec37767	-0.38177034
66	0xbe7d5bcc	-0.24742049
67	0xbe168be0	-0.14701796
68	0x3df1d1b8	0.11807579
69	0x3ef1d670	0.47233915
70	0x3e5111ba	0.20416918
71	0x3da87dc0	0.0822711
72	0x3e549318	0.20759237
73	0xbc006880	-0.007837415
74	0xbd2db83a	-0.04241202
75	0xbedd5818	-0.43231273
76	0x3d95954f	0.07303869
77	0xbef51c80	-0.47873306
78	0xbdae9fd6	-0.0852658
79	0x3c50c15f	0.012741416
80	0xbe9d376e	-0.30706352
81	0xbf2496b9	-0.64292485
82	0x3ec9d315	0.39418855
83	0x3e8d4b54	0.27596533
84	0x3e7282f8	0.23682773
85	0xbedbfea8	-0.42967725
86	0xbe1098f0	-0.14120841
87	0x3ee45225	0.4459392
88	0x3dcb7430	0.099342704
89	0xbdf9a0c0	-0.12188864
90	0xbebce4e9	-0.36893395
91	0x3e1d00cb	0.15332334
92	0x3ea415cb	0.32047877
93	0x3eb77191	0.35828832
94	0x3e77eda9	0.24211754
95	0xbe2c9094	-0.16852027
96	0x3e8c2ba2	0.2737704
97	0x3e8dd94c	0.27704847
98	0xbeca7b3c	-0.39547145
99	0xbeb44b84	-0.35213864
100	0x3e7e23ad	0.24818297
101	0x3e5db1c8	0.2164985
102	0xbb456bb0	-0.0030124001
103	0x3ea82ee4	0.32848275
104	0xbd421b60	-0.047389388
105	0xbb710a00	-0.0036779642
106	0xbebb6478	-0.3660009
107	0x3ed10f30	0.408319
108	0x3d2e0a60	0.042490363
109	0xbef0a85d	-0.4700345
110	0xbef7fa01	-0.48432925
111	0xbe6eb4c9	-0.23311152
112	0xbede39c6	-0.43403453
113	0xbda1a6f3	-0.07893171
114	0xbea52d43	-0.32261094
115	0xbde6e290	-0.11273682
116	0x3dfa6afd	0.12227438
117	0xbed36d4c	-0.41294324
118	0x3d30e351	0.043185536
119	0x3edc0a7f	0.42976758
120	0xbedc016c	-0.42969835
121	0xbebe91b4	-0.37220538
122	0x3ef95cb2	0.48703533
123	0xbd92c319	-0.07166118
124	0x3e3bcea8	0.18340552
125	0x3efee169	0.4978135
126	0xbe8a8855	-0.27057138
127	0x3eb7b96a	0.35883647

dense_6/kernel/transpose f4 [1, 8]
0	0xbe32a31c	-0.17445034
1	0xbd91baa8	-0.0711568
2	0xbe817b45	-0.2528936
3	0x3d44a559	0.04800925
4	0xbf43983e	-0.7640418
5	0xbd864ac2	-0.06557228
6	0xbeab670f	-0.33477065
7	0x3f075bab	0.5287425
