android/app/src/main/assets/Virbhadrasana.tflite (tflite, 4184 bytes, 5 tensors)

dense_4/MatMul_bias f4 [16]
0	0x3c456fef	0.012050613
1	0xbb7cc189	-0.0038567504
2	0x3a0dadb1	0.0005404605
3	0xb7bcb309	-2.2494716e-05
4	0x00000000	0.0
5	0xbbd90ad5	-0.0066236057
6	0x00000000	0.0
7	0x3c8e533a	0.01737367
8	0xbc851147	-0.01624359
9	0xbc8a60b5	-0.016891817
10	0x3c8ef409	0.01745035
11	0x00000000	0.0
12	0x3c98945f	0.018625436
13	0x00000000	0.0
14	0x00000000	0.0
15	0xbc8fc4b9	-0.01754986

dense_4/kernel/transpose f4 [16, 34]
0	0x3eb1c765	0.34722438
1	0x3d4843d7	0.048892822
2	0xbe5a8ea9	-0.21343483
3	0x3e97f3af	0.29678103
4	0x3d25a4a4	0.040440217
5	0x3e4ecde9	0.20195736
6	0x3e7fa0b4	0.24963647
7	0x3df71e4c	0.120663255
8	0x3de7143d	0.11283157
9	0xbe0df1d7	-0.13861786
10	0xbe0b3b48	-0.13596833
11	0xbe693a03	-0.22776036
12	0x3d41c6f9	0.047308896
13	0x3d0d02a4	0.034426346
14	0xbdc7985f	-0.09745859
15	0x3eb1ab2e	0.34700912
16	0xbc782002	-0.01514435
17	0xbe93d4ce	-0.28873295
18	0x3e8c1d20	0.2736597
19	0xbe820ecb	-0.2540191
20	0x3e30bf80	0.17260551
21	0x3e0b8564	0.13625103
22	0xbe327516	-0.17427477
23	0x3e2d7d81	0.16942407
24	0xbe581391	-0.21101214
25	0xbca93a86	-0.020657789
26	0xbe161ac6	-0.14658651
27	0xbe1f606a	-0.15564123
28	0x3e12e83a	0.143464
29	0x3e7b44f1	0.24538018
30	0xbd028354	-0.031863526
31	0x3e956191	0.29176
32	0xbe81a72c	-0.25322855
33	0xbe1ff879	-0.15622129
34	0xbdc4944a	-0.095985964
35	0x3e159bba	0.14610186
36	0xbe7227d7	-0.2364801
37	0x3e5ce645	0.21572216
38	0xbe963b2f	-0.29342028
39	0xbb8f3b09	-0.004371051
40	0xbe354e68	-0.17705691
41	0x3e979a71	0.29610017
42	0x3e779074	0.24176198
43	0xbe213662	-0.15743402
44	0xbddc6636	-0.10761683
45	0x3e31a6d3	0.17348795
46	0x3e569125	0.20953806
47	0xbe428821	-0.18997242
48	0x3e0a6be0	0.13517714
49	0xbead2f02	-0.33824927
50	0x3e349d95	0.17638238
51	0xbe21abe9	-0.15788235
52	0x3e964eed	0.2935709
53	0x3afdc7de	0.0019361933
54	0xbdfb61a1	-0.122744806
55	0xbd03cf68	-0.03218022
56	0xbe67ca38	-0.22635734
57	0xbd8263f7	-0.06366723
58	0xbdb384f3	-0.087655924
59	0xbd6397e5	-0.05556478
60	0xbe0d13c9	-0.13777079
61	0x3de2de8a	0.11077602
62	0xbca8c5a8	-0.020602062
63	0xbd16a18c	-0.036775157
64	0xbe58c7c1	-0.2116995
65	0x3da78568	0.08179742
66	0x3e8011ff	0.2501373
67	0x3dc1d04a	0.09463556
68	0xbe918ca0	-0.284276
69	0x3ddc54b1	0.10758341
70	0xbd357b58	-0.044307083
71	0xbe8ad7ab	-0.27117667
72	0x3e21d527	0.15803967
73	0xbe57b4d0	-0.21065068
74	0xbe2d5263	-0.1692596
75	0xbe8b38bb	-0.2719172
76	0x3ea9f24c	0.3319267
77	0x3e3a28a3	0.18179564
78	0xbc999c91	-0.018751414
79	0x3ea541bc	0.32276714
80	0x3ddd9db3	0.10821094
81	0x3e6ebde9	0.23314632
82	0xbd647834	-0.055778697
83	0xbe91bc8a	-0.28464156
84	0xbe9cdf35	-0.30639043
85	0x3d5aee28	0.05344978
86	0x3e8ff22a	0.28114444
87	0x3de2f260	0.110813856
88	0x3e90ade2	0.28257662
89	0xbe85d3bc	-0.26138103
90	0x3bf9e6d5	0.0076263943
91	0xbe144901	-0.14480974
92	0xbd4bb2f6	-0.049731217
93	0xbd3d5c97	-0.04623088
94	0xbea4eec7	-0.32213423
95	0x3e573818	0.21017492
96	0x3a3df853	0.0007246781
97	0x3e9b21f8	0.30299354
98	0xbe9883d6	-0.29788083
99	0xbe9b867c	-0.3037604
100	0x3da74a1c	0.08168432
101	0x3eaf8282	0.34279257
102	0xbe14ec9b	-0.14543383
103	0xbdc5ce88	-0.09658533
104	0x3ea6c14d	0.32569352
105	0xbe71ae33	-0.23601608
106	0xbe5bdc81	-0.21470834
107	0x3e71ab05	0.23600395
108	0x3e6d4e11	0.23174311
109	0x3e6a8f1a	0.22906151
110	0xbd8b5bfd	-0.06804655
111	0xbdd4ee7c	-0.1039705
112	0x3e40434d	0.18775673
113	0xbeab35a1	-0.33439353
114	0xbe6bee6d	-0.23040171
115	0x3da07154	0.078341156
116	0xbd0985a2	-0.033574708
117	0x3df55d7f	0.119807236
118	0x3ea269e7	0.31721422
119	0x3e79fbc7	0.24412452
120	0xbdca09ee	-0.09865175
121	0x3e4238ea	0.18967023
122	0x3c13d008	0.0090217665
123	0xbe3f3dd3	-0.18675928
124	0xbe7d4662	-0.2473388
125	0xbe9c86e2	-0.30571657
126	0x3c8893ce	0.016672041
127	0x3d2c9dea	0.042142786
128	0xbe8d83fc	-0.2763976
129	0x3e8f0c17	0.2793891
130	0xbe989035	-0.2979752
131	0x3cd38956	0.025822323
132	0x3dd57900	0.104234695
133	0xbe893cdf	-0.26804253
134	0xbdd2273d	-0.1026139
135	0x3d96e9e6	0.07368831
136	0xbe885e30	-0.2663436
137	0xbe86629f	-0.26247117
138	0xbea8f3a5	-0.32998386
139	0x3e818682	0.25297934
140	0x3e40ecd4	0.18840343
141	0x3d8a7420	0.0676043
142	0x3eaf1b32	0.34200436
143	0x3e87a7ca	0.264952
144	0xbb5bab00	-0.0033518672
145	0xbde44588	-0.111460745
146	0xbe8a3334	-0.2699219
147	0x3d2588a0	0.0404135
148	0xbe43c9ce	-0.19119951
149	0x3e14b82a	0.14523378
150	0x3e156f3e	0.14593217
151	0x3e17d932	0.14828947
152	0xbe708689	-0.23488821
153	0x3d1bde60	0.03805387
154	0xbe4dfb92	-0.20115498
155	0xbeaa64a6	-0.33279914
156	0xbe4e155b	-0.20125334
157	0x3e48948c	0.19587916
158	0xbe914b64	-0.2837783
159	0x3e639c38	0.22227561
160	0x3ea95258	0.33070636
161	0x3e18bdc2	0.14916137
162	0x3c489200	0.01224184
163	0xbd40b818	-0.047050565
164	0x3e870152	0.26368195
165	0xbdef740c	-0.11692056
166	0x3c5b1fa0	0.013374239
167	0xbd099bd8	-0.03359589
168	0xbe5a26d7	-0.21303879
169	0xbddf21b2	-0.10895099
170	0x3e10535a	0.14094296
171	0x3e7e84d7	0.24855362
172	0x3d6aa9a0	0.057290673
173	0x3e597d54	0.21239215
174	0xbe452356	-0.19251761
175	0x3aadcdf7	0.0013260235
176	0x3e9312e1	0.2872534
177	0xbe6ef102	-0.23334125
178	0x3e924a30	0.28572226
179	0xbe805206	-0.2506258
180	0x3cca1e69	0.024672704
181	0xbe891f9a	-0.26781923
182	0xbe0f5a3c	-0.13999265
183	0xbc3fd962	-0.011709543
184	0xbeb42ff7	-0.35192844
185	0x3cbdb16b	0.023155889
186	0x3e17c483	0.14821057
187	0x3dc02b54	0.09383264
188	0xbe5a3ef1	-0.21313073
189	0xbe650d2e	-0.22368309
190	0xbdde1853	-0.10844483
191	0x3e112390	0.14173722
192	0x3ea4316f	0.32068965
193	0xbe37b64e	-0.17940637
194	0x3e69b9b6	0.2282475
195	0xbead9575	-0.3390309
196	0x3d4c0121	0.049805764
197	0xbdd60917	-0.104509525
198	0x3d11b0e4	0.035569087
199	0x3e2dcffb	0.1697387
200	0xbe94e5e4	-0.29081643
201	0xbe035eca	-0.12829128
202	0x3e8985ca	0.26859885
203	0x3d3a6a2b	0.045511406
204	0xbe7dd803	-0.24789433
205	0xbe972ec8	-0.2952788
206	0x3ea3c006	0.3198244
207	0x3e53d42c	0.20686406
208	0x3e0e4ff0	0.13897681
209	0x3eade5f6	0.3396451
210	0xbe442bf8	-0.19157398
211	0xbcd93640	-0.026515126
212	0xbe99bdf7	-0.30027744
213	0xbeac9f93	-0.33715495
214	0xbe625b3b	-0.22105114
215	0x3d5ad560	0.053426147
216	0xbe45fb4b	-0.19334142
217	0xbc802750	-0.015643746
218	0xbdd9e500	-0.106393814
219	0xbda79144	-0.08182004
220	0xbe1e947a	-0.15486327
221	0x3c0f46a0	0.008744866
222	0xbeb0c6e5	-0.34526744
223	0x3d8c0060	0.06836009
224	0x3e558fcc	0.20855635
225	0x3e88d42e	0.2672438
226	0x3da140e0	0.07873702
227	0xbe258860	-0.16165304
228	0xbe1b27d2	-0.15151909
229	0xbe464d16	-0.19365343
230	0x3e1e4104	0.15454489
231	0x3e706ae8	0.23478281
232	0x3d45a808	0.04825595
233	0x3e9ea200	0.3098297
234	0xbe870c1a	-0.2637642
235	0xbe63bf8e	-0.22241041
236	0x3e946420	0.2898264
237	0xbdefa434	-0.11701241
238	0x3cd5f9c9	0.026120083
239	0xbe62fbec	-0.22166413
240	0xbd4101b4	-0.047120765
241	0x3e2d2fc4	0.16912752
242	0xbe5aab12	-0.2135432
243	0x3ea88221	0.3291178
244	0x3e4dc2be	0.2009382
245	0x3e80c317	0.25148842
246	0xbd77daed	-0.06051152
247	0x3c980b08	0.018559948
248	0x3d846e5e	0.06466363
249	0x3eb69218	0.35658336
250	0xbea364fd	-0.31912985
251	0x3e9bb85f	0.304141
252	0xbe6d9e75	-0.23204978
253	0x3d14f7c7	0.03636911
254	0xbcd2e7c9	-0.02574529
255	0xbea526b0	-0.3225608

dense_5/MatMul_bias f4 [8]
0	0x00000000	0.0
1	0x3bb1c73f	0.0054253633
2	0x3c96cc10	0.018407851
3	0x00000000	0.0
4	0xbc952700	-0.018207073
5	0xbc94b2c6	-0.018151652
6	0x00000000	0.0
7	0x3c95e0c0	0.018295646

dense_5/kernel/transpose f4 [8, 16]
0	0xbe6510b8	-0.22369659
1	0xbeec4800	-0.46148682
2	0x3e31ef28	0.17376387
3	0x3ee90b20	0.455163
4	0xbe84ba54	-0.25923407
5	0xbe6a2380	-0.22865105
6	0x3ec8ab70	0.39193296
7	0xbeeda218	-0.4641273
8	0xbe850e68	-0.25987554
9	0xbe4ff180	-0.20306969
10	0x3da03510	0.07822621
11	0xbe342c60	-0.17595053
12	0xbe0544c0	-0.13014507
13	0x3e2b10d8	0.16705644
14	0x3e3572a0	0.17719507
15	0xbe667ac0	-0.22507763
16	0x3ee1faac	0.4413656
17	0x3e11e138	0.1424607
18	0xbee92c9c	-0.45541847
19	0xbebec08c	-0.37256277
20	0x3e86ed5c	0.26352966
21	0xbe8bdc80	-0.27316666
22	0xbdcb9b40	-0.09941721
23	0x3e6855bb	0.22688954
24	0xbec93d7a	-0.39304715
25	0xbef2ba12	-0.47407585
26	0x3e3e5e7b	0.18590729
27	0x3db9b100	0.09066963
28	0x3cbed9ad	0.023297155
29	0x3ed94370	0.42434263
30	0x3e78f830	0.24313426
31	0xbd79f8c6	-0.061028264
32	0xbe540d23	-0.20708136
33	0xbe3e06d9	-0.185573
34	0x3ef76801	0.48321536
35	0x3da3c2f2	0.07996167
36	0xbdfff050	-0.12497008
37	0x3ebabe85	0.3647348
38	0x3ed07cf0	0.4072032
39	0xbdc04e0d	-0.09389887
40	0xbe9bb7c4	-0.3041364
41	0x3da70b86	0.08156495
42	0x3e683010	0.22674584
43	0xbe0b5150	-0.13605237
44	0x3f033567	0.5125336
45	0xbefd56ac	-0.49480188
46	0xbed9af40	-0.42516518
47	0x3e09ba0e	0.1344988
48	0xbe9c98b0	-0.3058524
49	0x3ef93d28	0.4867947
50	0x3d3f4960	0.046700835
51	0x3eed1aa8	0.463094
52	0x3e064cd8	0.13115251
53	0x3e97add0	0.29624796
54	0xbed54b14	-0.41658843
55	0xbe0ca060	-0.13733053
56	0x3ed1fb74	0.41012156
57	0xbe2747f0	-0.16336036
58	0xbead1240	-0.33802986
59	0xbef40640	-0.47661018
60	0xbe8f2034	-0.27954257
61	0x3b215c00	0.0024621487
62	0xbef238b0	-0.47308874
63	0xbec440c8	-0.38330674
64	0xbe89a8e0	-0.26886654
65	0x3b3d8a18	0.0028921422
66	0xbe5408eb	-0.20706527
67	0x3c9614a8	0.018320397
68	0xbd1b06e0	-0.037848353
69	0x3e5c098c	0.21488017
70	0x3ddc8ee0	0.10769439
71	0xbeed8d8c	-0.46397054
72	0x3e67327d	0.22577854
73	0x3ef0c770	0.4702716
74	0xbe5e4c4f	-0.21708797
75	0x3d259fc0	0.040435553
76	0x3e6cf341	0.23139669
77	0x3e69c338	0.22828376
78	0xbe94fee0	-0.29100704
79	0x3edef25e	0.43544286
80	0xbddfb1bd	-0.10922573
81	0x3ecf224e	0.4045586
82	0x3ccd3b4d	0.02505269
83	0x3e4ea3a6	0.20179614
84	0x3ec2248c	0.37918508
85	0xbd2276fe	-0.03966426
86	0x3ef0f414	0.47061217
87	0x3e5c0972	0.21487978
88	0xbe9eb0be	-0.3099422
89	0x3ed3dc9b	0.41379246
90	0x3ef26c22	0.47348124
91	0x3e38e2b8	0.18055236
92	0x3e9c798a	0.30561477
93	0xbe7b4328	-0.24537337
94	0x3e9b8de4	0.3038169
95	0x3e86747d	0.26260749
96	0xbe4f8d88	-0.20268834
97	0xbdb9b630	-0.09067953
98	0xbebd074c	-0.3691963
99	0x3d652660	0.0559448
100	0x3e93bd18	0.28855205
101	0x3ee0c294	0.4389845
102	0xbdd9c920	-0.10634065
103	0xbc2b4a80	-0.010454774
104	0x3da97360	0.08273959
105	0x3d9d0c70	0.07668388
106	0x3ec91c00	0.39279175
107	0x3e83f21c	0.25770652
108	0xbed6be0c	-0.4194187
109	0x3ec5df98	0.3864715
110	0xbd41c3e0	-0.04730594
111	0xbef190ac	-0.47180688
112	0x3eb8b6ed	0.3607706
113	0x3cb7c7ad	0.02243408
114	0xbebd5ef2	-0.369865
115	0xbe2823ea	-0.1641995
116	0xbe68bbb0	-0.22727847
117	0xbbb814d5	-0.0056177177
118	0x3ef24d2c	0.47324502
119	0x3e754fbb	0.23956196
120	0xbe807b6b	-0.2509416
121	0xbe795257	-0.24347816
122	0x3ebf1843	0.37323198
123	0x3e0c1f48	0.13683808
124	0x3ef85ab0	0.4850669
125	0xbe3716b0	-0.17879748
126	0x3e8e020c	0.27735937
127	0x3de26c82	0.110558525

dense_6/kernel/transpose f4 [1, 8]
0	0x3de04b18	0.10951823
1	0xbe616f23	-0.22015052
2	0xbe7a7df3	-0.24462108
3	0x3ee45534	0.44596255
4	0x3f418b2a	0.7560297
5	0x3eb11c5e	0.34591955
6	0xbe315c68	-0.17320406
7	0xbf541aae	-0.8285321
