android/app/src/main/assets/Vrikshasana.tflite (tflite, 4184 bytes, 5 tensors)

dense_1/MatMul_bias f4 [16]
00000000: 9926 55bb 2cde 54bb 0000 0000 0000 0000
00000010: b710 56bb 0000 0000 ae80 563b 65f7 afbb
00000020: 40b6 35bb 0000 0000 957b 563b 9923 50bb
00000030: 949a 563b 0000 0000 ad9f ad3b 0000 0000
-0.0032524227 -0.0032481058 0.0 0.0 -0.0032663771 0.0 0.0032730508 -0.005370068
-0.0027727038 0.0 0.003272747 -0.00317595 0.0032745944 0.0 0.005298576 0.0

dense_1/kernel/transpose f4 [16, 34]
00000000: 03ec 153d 6130 a93e ace6 833e 1062 69be
00000010: dc7e 2bbe 6a38 5e3e a1b3 68bc 8b29 a23e
00000020: fcf5 c8bc ae0b 383e afcb dbbd fb5d aebd
00000030: a315 eb3d 6f48 98bd 725d e6bd c038 8e3e
00000040: af9c 89bd f842 4f3e 5089 723e ef32 8abe
00000050: 8811 46be 7400 3b3d 646c 8bbe b9a0 09be
00000060: 0410 913e f960 26be fb54 f73d b0cc 883e
00000070: 62a5 f6bd 5f0e 9bbe 8cbf 083e 0037 013e
00000080: c358 9dbd 2b9b 16be d53c 9d3e 36c9 673d
00000090: 33ad 43be edc9 a33e 6d35 9e3d de74 853e
000000a0: 0068 2ebe b883 a53e 6cd9 143e c05b fcbd
000000b0: 1d05 aabe fd55 4ebe 98dc 59be 95e0 5abe
000000c0: 763e 9e3e b6bc a53d ecda ffbd 920b 553e
000000d0: 0ae8 9c3e 6e93 86be 6865 793e 4538 4fbc
000000e0: e822 1a3d 617c a1be 8fb4 8ebc cd98 d6bd
000000f0: 05f9 8e3e 1132 36be 5b50 e6bd f2ce 01bc
00000100: 4216 99be 1609 8e3e cb17 1dbe 86e7 10be
00000110: 8442 6e3e 8ed3 81be 6846 883d 5ff0 a6be
00000120: 3f98 1ebe d7c2 85be dca6 3b3e bc4b fd3d
00000130: 908c 473e 5430 92bd 10d4 26be a4b6 c3bd
00000140: 626d 76be 60e7 953e 5829 243d 2848 7f3e
00000150: d180 90be 6c22 f1bd 4e4b b13e 2644 36be
00000160: e29f 82be 78e6 903d 957e acbe 7cd5 cf3d
00000170: b83d 02be 6c38 2cbe d4bf 983e 2044 3b3d
00000180: e861 08bd 10ef 643d b213 f2bd 9aa3 83be
00000190: b564 acbe 2cc7 6d3e 941a 623e 0855 a73d
000001a0: 5d0f a7be a7a0 50be 3074 88bc 50b4 ef3d
000001b0: 8ce9 1c3e e546 87be 764e acbe 20b4 c43d
000001c0: 0151 3fbe 686b a63e ba68 3abe 60c0 373c
000001d0: 1407 78be 3885 153e 90ac d73c d2fc 1b3e
000001e0: 80b8 263d ecad 7f3e ec81 e73d 5803 8e3e
000001f0: 4014 b83b 1880 4f3d bcc5 8f3d 8ad6 e6bd
00000200: aebf 47be 95bf 5bbe f43d 833e 2066 9cbd
00000210: 769d 44be 0355 a4be a07e 2e3e 562f 5ebe
00000220: 8662 70bd 4f56 afbc a74a 03be acdf 9fbd
00000230: 442f 9b3d ed29 933d 04fa 5ebe 6337 483e
00000240: a110 1dbe 2ac7 ab3e 5a01 77be dabf a63e
00000250: e0e4 38be c6ff 323e 9998 70be 9b77 3d3e
00000260: 7e57 8c3d bd44 3f3e e1fb 013e ce02 053e
00000270: 96e2 853e bf22 86be 6b11 383d 75fd 7f3e
00000280: 936b 9cbe b2f0 703e 2614 21be ec45 a43d
00000290: 8afd 8a3e 17a2 a53e b648 b3bd c0a5 98be
000002a0: 0394 a93e adec 723d d6b5 dbbd 30d6 c83d
000002b0: d630 e2bd 0201 92be 408b 533d 07ef 7dbe
000002c0: c636 70be 0c3c 9dbe 949a 7b3e e7bc a0be
000002d0: 761a eebd b216 1b3e 90cc edbd 1ddc 0abe
000002e0: 30dc 3d3e 0c26 8cbe 85bd 4ebe 0009 9fbb
000002f0: 586c 2bbe 0f8e 8bbe 4003 7ebd d25f 183e
00000300: 5877 843d 906d 873e 28b6 f4bd 8818 81bd
00000310: 12d5 c7bd b3fa 57be 4313 54be 1808 c43d
00000320: 00f3 ecbc a876 a2bd a4e5 ed3d 02e5 74be
00000330: fd84 9cbd a3f8 8e3c e25a 773e d482 303e
00000340: 6516 86be bff4 a7be 2b04 253e 612d 67be
00000350: 8907 44bb e599 683d 0ed1 c83d 984d 02be
00000360: b707 9d3c 5d12 863d 2a71 223e bfde 9bbe
00000370: 729e 313d aec8 a7be 27a3 f4bd 5226 843d
00000380: f12b f13d 9e03 91be cb5b 783e 5ae6 b33d
00000390: a923 a93e f2c4 5ebe f4b2 8d3e 8c87 0f3e
000003a0: ad11 153e ef8c 13be 9ce7 013e d18e d53d
000003b0: 0d42 3dbe 4c68 3c3e d0fc a2be 8781 7b3d
000003c0: b881 a53c c4f3 a63e 0665 3abe 618e 843e
000003d0: 565f 84be 9d7a 293e a70b 943d da49 18be
000003e0: 2740 9c3e da46 a53e 18c1 86be 4b94 16bd
000003f0: 3726 27be 551b 383d af88 d33d 4774 9dbe
0.03660203 0.33044723 0.25761926 -0.22791314 -0.16747612 0.21701208 -0.014202983 0.3167232
-0.024531357 0.17973205 -0.10732209 -0.08514019 0.11478736 -0.074356906 -0.11248292 0.27777672
-0.06719338 0.2024039 0.23685193 -0.26991984 -0.19342625 0.04565473 -0.27231133 -0.13440217
0.2833253 -0.1624793 0.120767556 0.26718664 -0.12043263 -0.30284402 0.1335432 0.12618637
-0.076829456 -0.1470763 0.30710474 0.056588374 -0.19109039 0.31989995 0.07725034 0.26065725
-0.1703186 0.32327056 0.14536065 -0.123221874 -0.33207026 -0.2014999 -0.21275556 -0.21374734
0.3090703 0.080926344 -0.12492928 0.20805195 0.30645782 -0.26284355 0.2435509 -0.012647693
0.037630945 -0.31540206 -0.017420081 -0.10478363 0.27924362 -0.17792536 -0.11245795 -0.007922875
-0.29899794 0.27741307 -0.15341108 -0.14150819 0.23267561 -0.25356716 0.06654054 -0.32605264
-0.15487765 -0.26125214 0.1832537 0.12367961 0.19487214 -0.07138124 -0.16291833 -0.0955632
-0.24065164 0.29278088 0.04007849 0.24929869 -0.2822328 -0.117741436 0.34627765 -0.17799434
-0.25512606 0.070752084 -0.33690324 0.10148141 -0.12718856 -0.16818398 0.29833853 0.045719266
-0.033296496 0.05589205 -0.11820163 -0.25710756 -0.33670583 0.2322051 0.22080451 0.08170515
-0.3262891 -0.20373784 -0.016656965 0.11704314 0.15323466 -0.26421276 -0.3365361 0.096046686
-0.18683244 0.3250382 -0.18204013 0.011215299 -0.2422145 0.146016 0.026327401 0.15233162
0.040703297 0.2496869 0.113040775 0.27736926 0.0056176484 0.05065927 0.07020137 -0.11271389
-0.19506714 -0.21459801 0.25633204 -0.07636666 -0.19200692 -0.3209611 0.17040491 -0.21697745
-0.05868771 -0.02140346 -0.12821446 -0.07806334 0.075773746 0.07185731 -0.21775061 0.19552378
-0.15338375 0.33550388 -0.2412161 0.32568246 -0.18056059 0.17480382 -0.23495711 0.18502657
0.06852625 0.18678565 0.1269374 0.12989351 0.26149434 -0.26198384 0.044938486 0.2499903
-0.30550823 0.23529318 -0.15730342 0.08021149 0.2714656 0.32350227 -0.08754103 -0.29813957
0.33120736 0.059307743 -0.10728042 0.09806478 -0.11044471 -0.28516394 0.05164647 -0.24798213
-0.23458394 -0.30709875 0.24570686 -0.3139412 -0.11626141 0.15145376 -0.11611283 -0.13560529
0.18541026 -0.27372777 -0.20189483 -0.004853368 -0.16740549 -0.2725682 -0.06201482 0.14880303
0.064680755 0.26450777 -0.11948806 -0.06303507 -0.09757437 -0.21091728 -0.20710473 0.09571856
-0.028924465 -0.07932788 0.11616066 -0.23915485 -0.07642553 0.017452544 0.24155763 0.17237407
-0.2618896 -0.32803914 0.16114871 -0.22575904 -0.0029911718 0.05678739 0.09805499 -0.12724912
0.019168718 0.06546471 0.15863481 -0.3044338 0.043363996 -0.32770294 -0.11945181 0.064526215
0.11775959 -0.28323072 0.24253766 0.087841704 0.3303502 -0.21754816 0.27675593 0.14016551
0.14557524 -0.1440923 0.12686008 0.10427631 -0.18482228 0.18399161 -0.31833506 0.061402824
0.020203456 0.32607853 -0.182026 0.25889876 -0.25853986 0.1655068 0.07228785 -0.14871922
0.30517694 0.32280618 -0.26319194 -0.036762517 -0.16323172 0.04494794 0.10328805 -0.30752775

dense_2/MatMul_bias f4 [8]
00000000: 0000 0000 0000 0000 410b 56bb e976 563b
00000010: 2d8f 563b 0000 0000 6f71 563b 0e4d 56bb
0.0 0.0 -0.0032660516 0.0032724685 0.0032739148 0.0 0.003272142 -0.0032699737

dense_2/kernel/transpose f4 [8, 16]
00000000: 0088 f53e 5c0e c63e c0ed e7be 70f0 60be
00000010: 6020 7dbe 64cc 983e 0030 cd3c f8c7 e3be
00000020: 1862 e43e e45c d33e 486b d9be 3013 a1bd
00000030: b0dd cfbd 08d7 20be 20ff 533d 30a7 e3bd
00000040: 9825 07be 28b2 3fbe dcbe fbbe d8c5 92be
00000050: 5c30 a8be d03b cebd 4043 8dbd 9060 eabe
00000060: c8a2 4abe e047 b5bd 6cc5 c43e a0ff a3bd
00000070: 60bb cf3d b05d e53e 2082 9cbd 603d 0fbd
00000080: d812 fc3c cea5 e83e c025 64be 80a3 c6bc
00000090: d7dc 1c3d c019 a33d b067 963d 6659 4e3d
000000a0: f65d 873b c040 d63d a18e 553d af1a 91bd
000000b0: a92a 553e 88a9 cebe 0d6f c43d 843a d43e
000000c0: bc05 113e 8ad3 cdbe c0f7 e1bc b0bf b23e
000000d0: 1270 be3d 006c f8bc 581f 6b3e 1f60 7e3e
000000e0: 6027 c8be d491 dc3e d482 fb3e e82d 5b3d
000000f0: f8a2 e73d 78cf b13e 47aa ccbd 5cf4 d03e
00000100: 8382 7abe dcd4 f03d 3431 cc3e 985b 5b3e
00000110: 0798 b2be f079 5e3e 1e4f c43e a692 85be
00000120: 65b0 d53e 74e1 a03e e2ff d23e 7124 d83c
00000130: 3377 d73e b8c5 aebe 66bb d43d c093 603d
00000140: 58b9 353e 8ce6 a13e 3068 b4bd 109e d4bd
00000150: c44c dfbe 38f8 b6be 3043 5b3e 30c2 603e
00000160: 402b 70be c861 bf3e 00cd f73c 00cd 8cbc
00000170: b095 81be b025 963e 70ea a83e 9cf4 e7be
00000180: a7f0 fb3d 8928 dd3e 008f 8cbb 0043 7bbd
00000190: 116c 1e3e 9458 923e 0f05 28be fd8d 963e
000001a0: 5b94 1fbe 4cad 8c3e 6d2f 9ebe c551 b83e
000001b0: 12e2 ed3e d0c5 ea3d a4bd e33e 48f4 36be
000001c0: 62e6 153e b92a 9e3d 68b7 3ebe f898 2cbe
000001d0: 6ab5 e43e 3859 d8be 6764 dbbe 9270 e83e
000001e0: 4c93 2b3c 08fb 243e 1a15 6b3e 1329 f43e
000001f0: 3fc9 a83d 1cca ce3e 8909 773d 8057 29bd
0.47955322 0.3868283 -0.45298576 -0.2196672 -0.24719381 0.29843438 0.025047302 -0.44488502
0.4460609 0.41281807 -0.42464662 -0.07864988 -0.101497054 -0.15707028 0.051756978 -0.11115873
-0.13197935 -0.18720305 -0.49169052 -0.28666568 -0.32849395 -0.10070002 -0.068975925 -0.45776796
-0.19788659 -0.088516 0.3843187 -0.08007741 0.10143161 0.4479804 -0.07642007 -0.03497064
0.030770704 0.45439 -0.22280025 -0.024247885 0.038296547 0.07963896 0.073439956 0.050378226
0.004131074 0.10461569 0.052137975 -0.070851676 0.20817055 -0.40363717 0.09591494 0.41450894
0.14162344 -0.40200454 -0.027583957 0.3491187 0.092987195 -0.030324936 0.22961175 0.24841355
-0.3909254 0.43080008 0.4912325 0.053510576 0.11310381 0.347286 -0.09993415 0.4081143
-0.24463849 0.1175935 0.3988129 0.21421659 -0.34881613 0.21726203 0.38341612 -0.26088446
0.4173614 0.31422007 0.41210848 0.026384564 0.4208313 -0.34135222 0.10387306 0.054828405
0.17746484 0.31621206 -0.08808935 -0.103817105 -0.43613255 -0.3573625 0.21412349 0.21949077
-0.23453999 0.3737929 0.030249119 -0.017187595 -0.25309515 0.29325628 0.32991362 -0.4530381
0.1230176 0.43194988 -0.004289508 -0.061343193 0.15470912 0.28583205 -0.1640818 0.29405203
-0.15583937 0.27475965 -0.30895558 0.35999885 0.4646154 0.11463511 0.44480622 -0.17866623
0.14638665 0.077229924 -0.18624651 -0.16855228 0.44669658 -0.42255569 -0.42850038 0.45398384
0.01047213 0.16111386 0.22957268 0.47687587 0.0824151 0.40388572 0.060311828 -0.041343212

dense_3/kernel/transpose f4 [1, 8]
00000000: 261e 1b3f 56d8 2cbf 336d 243e 3c31 8bbe
00000010: 0cac b1be 0e77 25bf fd4b 80be 6a9f 8a3e
0.6059288 -0.675176 0.16057281 -0.27186 -0.34701574 -0.6463479 -0.25057974 0.27074748
