android/app/src/main/assets/yoga_classifier.tflite (tflite, 3488 bytes, 8 tensors)

dense_3/MatMul_bias f4 [8]
000000 00 00 00 00 e4 8f c7 bc 00 00 00 00 00 00 00 00
       0.0 -0.024360605 0.0 0.0
000010 00 00 00 00 15 44 0e bc d1 c1 d3 bb 6c 77 9a 3c
       0.0 -0.008683224 -0.0064623137 0.018855773

dense_3/kernel/transpose f4 [8, 34]
000000 4f 92 46 be 62 52 35 3e 0c 23 9f 3d 28 3a e1 3d
       -0.1939175 0.17707208 0.077703565 0.109974205
000010 f6 ed 6d 3e 59 5b b9 be 00 20 02 b9 1e 19 27 3e
       0.23235306 -0.36202505 -0.00012409687 0.16318175
000020 09 17 bf 3e ce 97 15 3e d8 27 7e be 90 de 83 3d
       0.37322262 0.1460869 -0.24819887 0.06438935
000030 8f ea 80 be bb 8f 9d be 04 a2 a0 3d 5a 84 21 3e
       -0.25178954 -0.3077372 0.07843402 0.15773144
000040 bc 8a 9d be 68 cb 0e bd b0 62 6a be 75 92 b2 3e
       -0.30769908 -0.034861952 -0.22889209 0.34877363
000050 b5 b3 a9 be 13 45 a8 3e d5 34 4b be e9 48 b2 be
       -0.33144918 0.328652 -0.19844373 -0.3482125
000060 38 46 e6 3d 88 86 5d 3d cc 69 73 be 3b 38 96 be
       0.11243862 0.054083377 -0.23770827 -0.29339775
000070 61 5b a2 3e 91 57 a3 be 44 d7 90 3d c6 f1 46 3e
       0.31710342 -0.31902745 0.07072309 0.19428167
000080 f7 74 30 be d0 ad ff 3c f7 0f 0f be 41 97 cb 3d
       -0.17232119 0.03121081 -0.13970934 0.09940959
000090 70 0a 09 3e c1 7a 44 3e ed 4b 55 3d 05 e5 c4 be
       0.13382888 0.19187452 0.05207436 -0.38455978
0000a0 a0 5e 7a bd 35 61 4a 3e 3c 8c fd 3d 92 e4 92 be
       -0.061125398 0.19763644 0.12380263 -0.2869001
0000b0 d0 a6 98 bd 80 c0 2d 3e 3e f0 8a be b6 13 51 be
       -0.07453692 0.16967964 -0.27136415 -0.20417675
0000c0 f6 3d 9d be 4b 9a 70 3e c1 47 05 ba 96 a4 36 3e
       -0.30711335 0.23496358 -0.00050842395 0.17836222
0000d0 f7 2b c2 be 2d c9 c4 3d cf d4 d5 3d f8 10 99 3e
       -0.37924168 0.09608684 0.10440981 0.2989576
0000e0 d7 5b c8 bd 2e 64 59 3d 79 7d f0 3c 20 4c d6 bd
       -0.09783142 0.053074054 0.029356705 -0.104637384
0000f0 c1 6d c4 be 69 45 65 be 3a d7 95 bd 5a 8d 65 3c
       -0.38364986 -0.22389759 -0.07316442 0.014010752
000100 30 3c 9f 3e 67 a5 36 3e 7c 5a b8 be c0 24 01 bc
       0.31100607 0.17836533 -0.36006534 -0.007882297
000110 73 09 b2 be d4 b5 c1 bd a1 5e a6 3e 41 9e 88 3e
       -0.34772834 -0.09458509 0.3249407 0.26683238
000120 1c a9 b8 bd 6a 78 73 3e 43 de 92 3e c3 b2 a0 be
       -0.0901663 0.23776403 0.28685197 -0.31386384
000130 e7 c5 62 be c0 0c d1 bb 68 30 9f bd 59 0a c0 be
       -0.22145806 -0.0063796937 -0.07772905 -0.37507895
000140 fc 0b e7 bd a8 32 3b be 43 98 66 be ee 9b 78 3e
       -0.11281583 -0.18281043 -0.2251902 0.24278232
000150 90 a8 9d bc d5 22 66 be 9c 44 9c be d1 a6 82 3e
       -0.019245416 -0.22474225 -0.30521095 0.25517896
000160 06 ad 4f be db 40 3f be be d3 1f 3e 24 ec 09 be
       -0.20280847 -0.18677084 0.15608117 -0.13468987
000170 cc 9f 9c bd e1 d7 5c be e7 88 a1 be c4 f6 96 3d
       -0.07647666 -0.21566726 -0.3154976 0.073712856
000180 36 da 59 3e e0 bb 23 bd 20 b8 1c 3c 65 23 b1 3e
       0.21274647 -0.039974093 0.009565383 0.34597316
000190 38 85 c1 3d 05 80 0c be b3 25 ba be 0a 6b 0a 3e
       0.094492376 -0.1372071 -0.36356887 0.13517395
0001a0 34 33 5e be 92 3e 7d 3e ac 12 b4 3d ef ef a1 3e
       -0.2169922 0.247309 0.08792624 0.31628367
0001b0 b2 aa bb be 4a 35 80 be 34 48 f0 bd 2b ef 30 be
       -0.36653668 -0.25040656 -0.11732522 -0.17278735
0001c0 e4 c6 b3 bd ac f1 ee 3d df b2 83 3e 60 6b bb be
       -0.0877817 0.11667189 0.25722405 -0.36605358
0001d0 00 7b 82 be 89 0c 68 be e7 c4 9a 3e e0 4d 10 3c
       -0.25484467 -0.22661032 0.3022835 0.008807629
0001e0 de a2 2e 3e 4e 6e 81 be 8f de a5 3e 28 d3 cc bd
       0.17054316 -0.25279468 0.3239636 -0.10001212
0001f0 3b 26 23 be 38 df 99 bd e5 36 80 be 00 7c 8f 3a
       -0.15932553 -0.07513279 -0.2504188 0.0010946989
000200 8f fc 91 3e 6d b3 27 be 8d 9d 82 3e a8 68 dc bd
       0.28513 -0.16377039 0.25510827 -0.10762149
000210 80 6b 43 bb fa 15 5c 3e 08 39 a0 3d 8d 0e b8 be
       -0.0029818714 0.21492758 0.07823378 -0.359486
000220 96 db b0 be 60 25 b4 bd aa 2d 1c 3e f8 90 1b bd
       -0.3454253 -0.08796191 0.15251794 -0.03798005
000230 00 19 5c bc 81 d3 34 be ac e8 9f bd a4 a0 87 be
       -0.013433695 -0.17658807 -0.078080505 -0.26489747
000240 6d 43 9f 3e c2 d7 1f 3e 71 64 a6 be 50 3d 91 bd
       0.3110613 0.15609649 -0.32498506 -0.070917726
000250 80 99 70 3c 67 e9 b3 be b6 7d 77 3e 6b 84 57 be
       0.014685035 -0.3513901 0.24169049 -0.21046607
000260 72 24 43 3e 10 cf 94 bc f0 4a 87 be 98 67 03 bd
       0.19056872 -0.018165141 -0.2642436 -0.032081217
000270 a0 08 cc 3c eb eb 90 3e c3 cd 81 be 63 95 a5 3e
       0.024906456 0.2830499 -0.25352296 0.32340536
000280 9e 40 a0 be 36 ae 46 3e ac 1b d1 bd a2 69 71 3e
       -0.312993 0.19402394 -0.10210356 0.23575452
000290 29 c4 aa 3e 62 ba b4 be 89 b4 b3 be 06 01 12 be
       0.33352783 -0.3529845 -0.35098675 -0.14258203
0002a0 88 4e e2 bd 02 b5 11 3e 09 83 ae 3e 00 d8 b9 3e
       -0.11050135 0.14229205 0.34084347 0.36297607
0002b0 9f d5 a4 3d 41 12 31 be dc 03 af be a7 59 ea bd
       0.080485575 -0.1729212 -0.34182632 -0.11442881
0002c0 fe 42 53 bd cc 76 8a bc 75 8b c2 be 43 6d 98 be
       -0.05157756 -0.01690235 -0.37997022 -0.2977086
0002d0 99 2f bc 3b f4 61 4d be 80 c5 22 be 2c 51 ef bd
       0.005742979 -0.20056897 -0.15895653 -0.11685404
0002e0 0c 31 c5 3d e6 ba 5f 3e a6 b5 61 3e bc 81 31 3e
       0.096284956 0.2184864 0.2204195 0.17334646
0002f0 0c eb e6 bd 8b 01 3b be b3 ee 8b 3e 28 fd 85 3e
       -0.112753004 -0.18262307 0.2733055 0.26169705
000300 9b ad b5 be 93 65 94 be 34 bd 8b 3a 6a b4 2e be
       -0.35484013 -0.28983745 0.0010661245 -0.1706101
000310 42 f3 b6 3e ec 37 42 be b3 d4 bf be de e9 b8 3e
       0.35732466 -0.18966645 -0.37466964 0.36115927
000320 17 a8 c2 3d 45 3f be bd ef 8d 23 3e 57 49 95 be
       0.09504717 -0.092894115 0.15972112 -0.29157516
000330 01 1d a7 3e 42 f7 b0 be a3 87 b9 3e 81 45 a5 be
       0.32639316 -0.34563643 0.36236295 -0.3227959
000340 58 64 27 3e 9c d8 0a be e5 1d b9 bd 0e 81 05 be
       0.16346872 -0.13559192 -0.09038905 -0.13037512
000350 27 c4 a1 bd 55 97 53 be 78 de b0 be f0 6f 91 3e
       -0.07898741 -0.20663197 -0.3454473 0.28405714
000360 1c a2 b1 3e 54 3f 2e bd 09 46 a0 3e 65 16 89 3e
       0.34693992 -0.042540863 0.31303433 0.26774898
000370 99 65 a0 bd 62 af 87 be ff 11 78 3e a5 cb 86 be
       -0.07831878 -0.26500994 0.24225615 -0.26327243
000380 d6 aa b5 bd e1 d9 4a bb 82 e5 9b 3d 33 48 8c 3e
       -0.08870475 -0.003095262 0.076121345 0.27398834
000390 02 31 7b be 84 c4 34 bd 78 45 24 bc d5 0a 75 bc
       -0.24530414 -0.044132724 -0.010026328 -0.014956196
0003a0 4a 4f ea 39 1a b9 8b bd 9d 72 2e 3e 68 8e 6d be
       0.00044691033 -0.06822415 0.17035909 -0.23198855
0003b0 2a dc 88 3d 57 bc 25 bd fc e2 38 be 38 5a 2c 3f
       0.06682618 -0.040462818 -0.18055338 0.6732516
0003c0 d5 2e 8c 3e 4f 2b b5 3e 6b cf 84 be 63 63 31 3e
       0.2737948 0.35384604 -0.25939497 0.1732307
0003d0 d6 a1 ab be d0 88 0a bc c3 2e 4b 3e 96 98 4a be
       -0.3352191 -0.00845547 0.19842057 -0.1978477
0003e0 b3 15 3b 3d 98 ec 34 be 19 c2 69 3d 96 9b 81 3e
       0.04567499 -0.17668378 0.05706987 0.25314015
0003f0 3d 06 46 bc 1e b6 c5 bc be 7a 9b 3d 79 81 e4 bd
       -0.012086448 -0.024134692 0.075917706 -0.111575074

dense_4/MatMul_bias f4 [8]
000000 68 4c af bd 01 dd 8e be 64 fe 82 bb 00 00 00 00
       -0.08559495 -0.27902988 -0.003997611 0.0
000010 63 00 0f be 28 22 a1 be 00 00 00 00 00 00 00 00
       -0.13964991 -0.31471372 0.0 0.0

dense_4/kernel/transpose f4 [8, 8]
000000 58 68 86 3e 29 60 88 3d a4 c2 4e 3e 00 c0 04 bb
       0.26251483 0.06658966 0.20191437 -0.0020256042
000010 80 a5 b3 bc 70 7e 39 3e 10 1d 7f be db 98 a3 3e
       -0.021929502 0.18114638 -0.2491343 0.31952557
000020 c0 95 cd bd aa 6d 4d be 68 bf 17 bf 20 13 bd bc
       -0.10038328 -0.20061365 -0.5927644 -0.023080409
000030 48 19 fd 3d 40 0d bb be 5d 56 51 3e 9d 73 37 bf
       0.12358338 -0.36533546 0.20443101 -0.71660787
000040 53 57 13 3f 45 4f d1 3e f8 29 46 be d0 5a 83 3d
       0.5755512 0.4088079 -0.19351947 0.064138055
000050 80 b7 5a bd de fe 6f be a2 47 d0 be 97 0d dc bc
       -0.053397655 -0.23437068 -0.40679651 -0.026861949
000060 7c 77 cd be 0b fa 02 3f 26 de aa be 58 12 99 be
       -0.40130222 0.51162785 -0.3337261 -0.29896808
000070 46 70 8e be 60 1e 33 3e 0a 92 24 be cb c8 c7 be
       -0.27820033 0.17492056 -0.16071334 -0.3902038
000080 9a 43 9d 3e dc 75 57 3e 08 8c 66 3e fc 7c 16 bf
       0.30715638 0.21041054 0.22514355 -0.5878446
000090 c0 78 8b 3d 8a e3 55 3e 23 61 db bd 2d 97 af 3e
       0.068101406 0.2088758 -0.10711887 0.34295025
0000a0 4a 1a d9 3e 79 a1 06 bf 50 72 8e 3d 28 cb aa bd
       0.4240287 -0.5259014 0.06955397 -0.0833953
0000b0 20 25 5a bd 92 3f e9 bd 48 a7 96 3e 0f e6 f4 3d
       -0.05325806 -0.11389078 0.294245 0.11957943
0000c0 b8 0c 70 3e 0a 0f ff 3e f3 22 e9 be 6e 57 d1 be
       0.23442352 0.4981616 -0.45534477 -0.40887016
0000d0 16 f9 03 bf 77 3b 06 3f 86 d9 0c be 1c 92 19 bf
       -0.5155195 0.52434486 -0.13754854 -0.5998857
0000e0 a0 44 10 bd 58 fb 9e bd e6 36 60 be 43 36 15 3f
       -0.035221696 -0.07762784 -0.21895942 0.5828592
0000f0 0e 45 e7 3e 69 7e 9b be 08 4d 0d be 70 a8 8c be
       0.45169872 -0.3036988 -0.13798916 -0.27472258

dense_5/MatMul_bias f4 [8]
000000 83 7f 2c bd fc bd c3 bc 28 ff ea bd 00 00 00 00
       -0.042113792 -0.023894303 -0.114744484 0.0
000010 ac ed f6 be f9 a0 ce 3d a5 c3 7f bf 02 69 50 3f
       -0.48228204 0.10089297 -0.99907905 0.8141023

dense_5/kernel/transpose f4 [8, 8]
000000 c1 9f 6d 3e f2 6d 20 be 8b 97 a4 3b 10 00 7c 3d
       0.23205473 -0.15666941 0.005022948 0.061523497
000010 68 50 d9 3d 40 c9 b9 be 08 6c 9e 3e 06 c1 97 be
       0.106110394 -0.36286354 0.30941796 -0.29639453
000020 a5 b5 b9 be a5 97 84 3e 40 da ef bc 22 ca b0 be
       -0.36271396 0.25896946 -0.029278874 -0.34529215
000030 c4 ef c4 3e bf bc 58 be d0 5c fd bd 98 fd 04 bf
       0.38464177 -0.21165751 -0.12371218 -0.51949453
000040 6c 60 9e be 9e 9f 2b be 21 2d 9c be a3 2e 12 3f
       -0.3093294 -0.16760108 -0.3050318 0.5710241
000050 8b 27 f1 3e fd 43 26 bf df 75 10 bf fc e7 8f be
       0.4710048 -0.6494749 -0.56429857 -0.28106678
000060 08 7e 4f be 84 c1 4c 3e d8 1d f7 be d1 fa 14 bf
       -0.20262921 0.19995695 -0.48264956 -0.58195215
000070 ce 30 0b be 92 b5 1a bf 7c 6a d2 be 24 b4 09 bf
       -0.13592836 -0.60433304 -0.41096866 -0.537905
000080 20 1d 53 bd 08 e7 ff bd 10 83 dc be ea 80 8f 3e
       -0.051541448 -0.124952376 -0.43068743 0.2802804
000090 60 16 0c 3e 6f 33 27 3e 29 00 a6 be 80 19 2a 3d
       0.1368041 0.16328214 -0.32421997 0.041528225
0000a0 db af e8 3e e3 2a 4b 3f 40 d4 15 bf 80 5e eb be
       0.45446667 0.79362315 -0.5852699 -0.45970535
0000b0 4a b4 31 3c 74 1e 2f 3e ce f6 d9 3e ae d9 fa be
       0.010846207 0.1710146 0.4257111 -0.489942
0000c0 fa ae c1 be f1 24 bc 3d 1c cf 68 be 0e a2 d6 3e
       -0.3782881 0.091867335 -0.22735256 0.41920513
0000d0 0e 19 37 be cb f6 91 3e 11 eb 02 3f 32 b8 eb 3e
       -0.17880651 0.285086 0.5113993 0.46038967
0000e0 a3 79 05 be 06 cb 08 bd 38 4a 01 bf 58 a8 eb 3d
       -0.13034682 -0.033396743 -0.50503874 0.115067184
0000f0 8f db 43 3d ff cc 10 3e a9 15 90 be c0 57 3b 3e
       0.04781681 0.141407 -0.28141525 0.18295193

dense_6/MatMul_bias f4 [3]
000000 57 2b 4b 3f cf 9f 4d bd 3f 6f 20 bf
       0.79363006 -0.050201233 -0.6266975

dense_6/kernel/transpose f4 [3, 8]
000000 e3 1d 5b bd cf 40 02 3f 07 eb 48 3e 00 7f b0 3c
       -0.0534953 0.5088014 0.19620906 0.021544933
000010 ab 64 df bd dd f5 88 be f3 ba ce 3e 75 54 85 3e
       -0.10907873 -0.2675008 0.40377006 0.26040998
000020 a6 be 14 bf f4 5e 9c be 20 2b 0a bf 14 b1 db be
       -0.58103406 -0.30541193 -0.53972054 -0.42908537
000030 55 28 e3 be 11 ef 9b bd c6 69 1b 3f 81 b2 32 3e
       -0.44366708 -0.07613958 0.6070827 0.17450906
000040 85 99 f7 3e 38 55 19 bf 4e 36 1b 3d 90 12 b0 bd
       0.48359314 -0.5989566 0.037893586 -0.085972905
000050 cf 71 94 3e 33 08 8e be 83 76 04 3f fd 2c 91 be
       0.2899308 -0.2774063 0.51743335 -0.28354636
